submission/predictor_final.onnx (onnx, 325464 bytes, 22 tensors)

predictor.encoder.stem.bias f4 [64]
000000 d1 fb bf bf 80 ae f9 bf 2f 90 25 bf e1 d7 06 c0
       -1.4998723 -1.9506378 -0.6467313 -2.1069262
000010 de 09 14 c0 30 bc 34 c0 f8 16 aa bf 3f 80 21 c0
       -2.3131022 -2.823986 -1.328826 -2.5234525
000020 66 e1 07 c0 53 8c ab bf 18 2a c4 bf ca 7a c5 bf
       -2.1231322 -1.3402199 -1.5325346 -1.5428097
000030 a2 4c a6 bf ff 21 2d c0 6c 49 f9 bf b4 7f f7 bf
       -1.2992136 -2.7052 -1.9475532 -1.9335847
000040 df 03 21 c0 52 22 c3 bf 55 3a a8 bf f3 06 1b c0
       -2.5158613 -1.5244849 -1.3142802 -2.4222991
000050 01 ea 3f bf fc a4 81 bf 60 46 de bf 8d 69 17 c0
       -0.74966437 -1.0128474 -1.7365227 -2.3658173
000060 6d ca 19 c0 b6 28 20 c0 7b fa bf bf 14 16 c7 bf
       -2.40298 -2.5024848 -1.4998316 -1.5553613
000070 c4 c9 84 bf 53 96 fc bf df 65 48 bf e5 21 ab bf
       -1.0374074 -1.9733375 -0.7828044 -1.3369719
000080 b0 e6 3d bf 61 dc 06 c0 e8 52 aa bf 6a 0b fa bf
       -0.74180126 -2.1072009 -1.3306551 -1.9534733
000090 68 d8 17 c0 78 1a 29 c0 22 f7 d7 bf 6c 37 12 c0
       -2.3725834 -2.6422405 -1.6872294 -2.2846327
0000a0 b9 88 e8 bf fa bf 23 c0 b6 52 15 c0 a4 1f d8 be
       -1.8166724 -2.5585923 -2.3331733 -0.4221164
0000b0 e0 53 18 c0 15 41 2e c0 94 b2 08 c0 40 17 c7 bf
       -2.3801193 -2.7227223 -2.1358995 -1.555397
0000c0 90 0d ba bf 22 b7 d9 bf a0 23 80 bf c6 d6 14 c0
       -1.4535389 -1.7009013 -1.0010872 -2.3256087
0000d0 21 d0 1a c0 f3 19 e6 bf 58 40 c5 bf 52 0a 2c c0
       -2.4189532 -1.7976669 -1.5410261 -2.68813
0000e0 7f 96 21 bf 80 57 22 c0 a2 5a c4 bf a3 b7 db bf
       -0.63120264 -2.5365906 -1.5340159 -1.7165416
0000f0 35 42 12 c0 2e fb 1b c0 ae b9 15 bf dc 82 17 bf
       -2.285291 -2.4372058 -0.5848645 -0.5918405

predictor.encoder.conv.weight f4 [64, 64, 3]
000000 49 10 38 bc 9c 42 63 3c 41 53 0f 3d 4a 9b 4e bd
       -0.011234351 0.013870861 0.034991506 -0.050441064
000010 82 bd 6d 3c 41 7f a6 bc d1 d0 ee bc a3 9e 65 3d
       0.014510514 -0.020324351 -0.029152306 0.05605949
000020 22 29 bf bc be ae 2e 3d ff f8 30 bd c4 5d b8 3c
       -0.023335043 0.042647116 -0.04320621 0.022505648
000030 0e 98 84 bd 24 82 be 3c e4 7b 3f 3d 60 f2 20 bc
       -0.06474315 0.023255415 0.04674901 -0.009823412
000040 43 65 0b 3e fd 72 3f 3d dc 07 9f 3c ac 45 f7 3c
       0.13612847 0.04674052 0.019412927 0.03018459
000050 95 76 27 bd 7b 3a 50 bd 75 86 96 3d 94 fc c1 3c
       -0.040884573 -0.05083702 0.073498644 0.023680009
000060 86 b8 fc bc 59 26 97 bd ad f5 15 3d b9 4c da 3d
       -0.030849706 -0.07380361 0.036611248 0.10659165
000070 50 db 00 3d 05 00 46 3d 6a df 85 3d 87 c7 fb bd
       0.031459153 0.048339862 0.065367535 -0.12293916
000080 b6 71 8e 3d 70 cc 18 bd 0b fa 5f 3d 65 fe a3 bc
       0.069552824 -0.03730434 0.05468182 -0.020018766
000090 66 ee b2 3c 4e 68 b8 3b a5 af da bc 20 a4 93 bd
       0.021842193 0.0056276685 -0.026695082 -0.07209039
0000a0 e2 a7 70 3d 45 6c a8 3b 6d cc 71 bd 17 af 88 bd
       0.058753856 0.00513986 -0.059032846 -0.06674021
0000b0 f7 ea a4 3c 04 8d 47 bd c5 e1 75 3d b4 19 f4 3d
       0.020131571 -0.048718467 0.060029764 0.11918965
0000c0 b5 b0 7d bc 7c 6c 8f 3c e1 b7 64 3d 1b c3 12 bd
       -0.015484025 0.017507784 0.055839423 -0.0358306
0000d0 ec 0d 0e 3e 52 a5 ec 3c df 83 58 bd df c7 93 3b
       0.13872498 0.028887425 -0.052860137 0.0045099105
0000e0 2e d8 0b 3d 7f ab 64 3d ab 72 ed bc a7 82 25 3d
       0.034141712 0.055827614 -0.028985342 0.040407803
0000f0 1e a6 04 3c 66 21 3d 3d 21 b9 82 bd 68 d6 1d bd
       0.008096246 0.04617443 -0.06382967 -0.03853455
000100 67 f0 1f 3d 06 f7 8a 3d fa 63 cf 3d 26 e8 d2 bc
       0.039047625 0.06785397 0.10126491 -0.025745463
000110 23 26 d1 3d bd dd ea bc f3 db 89 3d a1 ed d1 3c
       0.10212352 -0.028670186 0.06731405 0.025626006
000120 a4 61 19 3c be f5 1f 3d c4 9a d8 3d 94 54 39 3d
       0.009361658 0.039052717 0.10576394 0.045246676
000130 7f 75 0c bd 61 ac 5e 3b 0e 3f a9 3b 67 00 8b 3d
       -0.03429174 0.0033977258 0.0051649874 0.06787186
000140 57 f6 3a 3d 93 f2 1b bd fc 0b 31 3d 1e 50 19 bb
       0.045645084 -0.038073134 0.04322432 -0.00233937
000150 78 df 26 3b 88 e4 c3 3d 0d f1 6b 3d a1 ec f0 3c
       0.0025462788 0.09565073 0.05760293 0.029409708
000160 72 7f bd bc d5 ff c9 3d 6b 31 2c bd a1 27 0c 3c
       -0.02313206 0.09863249 -0.042039316 0.00855437
000170 23 0c 14 3b 60 68 22 3d f3 39 91 bd a2 da 05 3e
       0.0022590242 0.03965032 -0.07091131 0.13071683
000180 c8 3d 6d 3d d4 46 0e bd fa 66 5c bc d9 7d 6e bc
       0.057920247 -0.034735516 -0.013452286 -0.014556372
000190 17 2c cf 3c 1f d4 5c 3d 9c aa e1 bc fb 04 a7 3c
       0.025289578 0.053913232 -0.027547173 0.020388117
0001a0 f2 76 2b bc 3e 03 3f 3d 50 5e 02 3d 18 63 df 3c
       -0.0104653705 0.04663395 0.031828225 0.027268931
0001b0 4c 9f ab bc dd 5f b1 3d 96 bb 7d 3d ba 38 83 3d
       -0.020949982 0.086608626 0.061946474 0.06407304
0001c0 2a ab 6d 3c 75 19 a8 3c 49 04 58 bd f5 d2 2d 3d
       0.014506141 0.020519951 -0.05273846 0.042437512
0001d0 4e 2a 42 3d c8 00 98 bb 47 c7 9a bc 93 34 fb bc
       0.047403626 -0.004638765 -0.018893851 -0.030664718
0001e0 f4 21 49 bd 11 18 ad bc 9e a0 ad bc 18 24 9c bd
       -0.049104646 -0.02112964 -0.021194752 -0.07624072
0001f0 1f dd 0a 3d 9c 94 d4 3d 5b 0a 34 bd 35 f4 91 3d
       0.033902284 0.103799075 -0.04395519 0.07126657
000200 b4 94 39 3d 76 fe 7f bd 6e f5 80 3d f8 a0 99 bd
       0.04530783 -0.062498532 0.06296812 -0.075014055
000210 e6 8a a1 3d 45 b2 30 bd 1e 70 3a 3d e8 f4 81 3d
       0.07887821 -0.04313876 0.04551708 0.0634554
000220 51 cf 9d 3c b9 93 55 3d 62 1b e2 bc 25 6c 02 bd
       0.019263895 0.052142832 -0.027600948 -0.031841416
000230 0a 35 f7 39 f0 ed 7b bc 96 2d c1 3d dc 3e b6 bc
       0.00047151028 -0.015376553 0.09432523 -0.02224677
000240 72 b1 46 bd 22 c7 19 3a 22 d9 cb 3d 72 9b 5a bd
       -0.04850907 0.000586616 0.09953524 -0.0533709
000250 45 dc e0 3d 6c 33 00 3e d2 72 25 bd c5 ba e1 bc
       0.10979513 0.12519616 -0.040392704 -0.027554879
000260 40 b4 af 3d 5e a6 e2 3c 4b 7c 81 3d e6 05 e3 3d
       0.08579302 0.02766722 0.06322535 0.110851094
000270 0b 89 01 3c bb b2 e1 3d 1c a6 af 3d bd cc 26 bd
       0.007906209 0.11020418 0.08576605 -0.040722597
000280 40 0f a3 3d 21 a1 47 3b d6 a7 3e bd e8 a0 99 bc
       0.07961893 0.003046103 -0.04654678 -0.018753484
000290 88 c4 09 bd ff 44 da 3c fe 24 b3 3c d8 f2 b4 3d
       -0.033634692 0.026644228 0.021868225 0.08835381
0002a0 34 ac a4 3c 18 a7 8c 3d e7 ff 9c bb ee ba a1 3d
       0.020101644 0.06867808 -0.004791248 0.07896982
0002b0 39 7f cc bb 99 d6 b3 3d 14 17 d7 3d 50 39 71 bd
       -0.006240752 0.08781166 0.10502449 -0.058892548
0002c0 a4 a5 62 3d 3c d2 7f bd 8e 90 13 3c 38 45 19 3d
       0.05533375 -0.062456354 0.0090066325 0.037419528
0002d0 7e ea 7f 3c 99 40 e4 3d 29 0b 1e 3d d3 4f 93 3d
       0.015619872 0.111451335 0.038584862 0.0719296
0002e0 23 fd 9d 3c 6f 7b eb 3d dc ef 35 bc da 8b ae 3d
       0.019285744 0.114981525 -0.01110455 0.08522768
0002f0 5b 84 c0 3c 9c bb 96 bc ea 2d 26 bc ce 20 77 3c
       0.023500612 -0.018400006 -0.010142783 0.015083505
000300 48 eb 8a bd 3d ef 8f 3d 51 59 e5 bd b2 c8 1b be
       -0.067831576 0.07028053 -0.111986764 -0.15213278
000310 70 32 5d 3d 9e fd c9 bd 41 83 2c be cd 07 e8 3d
       0.05400318 -0.09862827 -0.16846944 0.11329613
000320 5d e9 19 be 13 c6 64 be 85 93 31 3d d9 e2 ce bd
       -0.15030427 -0.22341184 0.043353576 -0.101018615
000330 97 11 3c be f7 b2 b2 3d 3e 58 64 bd 54 07 51 be
       -0.18366085 0.08725541 -0.055748217 -0.20412952
000340 fc 46 a6 3d 43 61 0f be 09 62 7f bd b7 ed 6b be
       0.08119008 -0.14001946 -0.062349353 -0.230399
000350 7c 72 a9 bd 50 b7 1c be aa de 20 3d b3 a7 c7 bd
       -0.08273789 -0.15304303 0.03927485 -0.09748783
000360 e0 d8 16 be 69 89 5e be 10 50 77 be a6 2c 59 be
       -0.14731169 -0.21732105 -0.24151635 -0.21208438
000370 75 32 47 3d a6 fd e7 bd 62 fa 7b be cc 2d 91 be
       0.048632104 -0.113276765 -0.24607232 -0.28355253
000380 89 b5 40 be 57 86 26 be 80 b5 07 3d 0f 19 cb bd
       -0.1881925 -0.16262184 0.033132076 -0.09916889
000390 f6 13 2d be 52 74 51 3d a3 f5 bc bd d6 c2 51 be
       -0.16902146 0.051136322 -0.09226539 -0.2048448
0003a0 34 03 e6 3d 61 e3 d1 bd b3 9b 00 be 3c 08 d4 bd
       0.1123108 -0.10248447 -0.12559395 -0.10353133
0003b0 5d 69 01 be 0b ad c2 bd d9 09 a6 3d 4c 77 69 bd
       -0.12637849 -0.095056616 0.08107347 -0.056998536
0003c0 6d 21 13 be 32 40 b7 3c 2f f8 29 be c9 4d c5 bd
       -0.1436822 0.022369478 -0.16598581 -0.09633977
0003d0 a9 4b 9e 3d ed 34 be bd df 6c 00 be bc d3 30 3e
       0.07729275 -0.092874385 -0.12541531 0.1726827
0003e0 09 27 12 be 84 ce f5 bd 50 21 a0 bc 71 6e bf bd
       -0.14272703 -0.1200228 -0.019547135 -0.09347237
0003f0 64 4f 18 bd f4 1a 11 be 07 f9 1a bb 17 0c ad bd
       -0.037185088 -0.14170438 -0.0023646967 -0.084495716

predictor.encoder.conv.bias f4 [64]
000000 b9 65 17 3c f8 e6 2c bc 0b 87 cc 3d ec ad b7 bd
       0.009240561 -0.010553114 0.09986695 -0.0896872
000010 4b ff c7 3d d5 13 04 be dd 5e 10 bd 69 a2 8e 3d
       0.0976549 -0.1289819 -0.03524672 0.06964571
000020 d1 ce 4f 3d 9d 70 64 ba cc 42 9f 3e 61 dd a1 3d
       0.050734345 -0.00087142905 0.3110565 0.07903553
000030 41 57 b4 3c b9 75 c7 bd 95 78 c7 bd 49 f9 44 bd
       0.022014262 -0.09739251 -0.09739796 -0.0480893
000040 b4 75 82 bc a4 01 a6 bd a2 d9 68 3e 02 35 21 3e
       -0.015925266 -0.08105782 0.2273927 0.15742877
000050 32 a4 84 3e f4 f8 76 bd f4 e3 9d 3d 8a 3d b6 3d
       0.2590652 -0.060296014 0.07709494 0.088984564
000060 32 d6 4f 3c 97 c8 e2 3d 77 34 c4 3d 75 8b 30 3d
       0.0126853455 0.11073416 0.095803194 0.043101747
000070 eb a4 0c 3c 24 e8 40 3e 81 c1 33 3d 05 0e 0d be
       0.008584241 0.18838555 0.04388571 -0.1377488
000080 b9 10 8e bd c6 0e 69 bb 7d 56 39 3e c6 68 a9 bd
       -0.06936783 -0.0035561784 0.18099399 -0.08271937
000090 a0 6b 74 3e 8d f5 93 bc 87 0a 91 bc ce cb d1 3b
       0.2386918 -0.018061424 -0.017705215 0.0064024692
0000a0 6b 26 09 3d 08 d9 48 bc c9 c3 1a 3e 1c 92 86 bc
       0.033483904 -0.0122587755 0.15113749 -0.016427092
0000b0 c5 46 7a bd a1 5c d9 bd a4 59 a4 bd 55 dc 78 bc
       -0.061102647 -0.10613371 -0.0802491 -0.01518925
0000c0 4d c8 b2 3d 80 f1 77 bb b2 bf a1 3d 42 7c f2 3d
       0.087296106 -0.0037833154 0.07897891 0.118401065
0000d0 3a 74 08 3e 89 c8 0e 3d 1d 32 41 3d 1c dc 82 3d
       0.13325587 0.034859214 0.047166932 0.06389639
0000e0 92 2d 1d 3e 7c ed 38 3d b9 7b 6f 3e 89 0f 50 c0
       0.15349415 0.045148358 0.2338704 -3.2509482
0000f0 0b df 51 c0 62 e6 4c c0 71 ab 4b c0 b4 1a 50 c0
       -3.2792385 -3.2015615 -3.182339 -3.2516298

predictor.regime_proj.0.weight f4 [12, 160]
000000 30 6b 25 bd 51 10 34 3e dc db e4 3b 93 7a be bd
       -0.040385425 0.17584349 0.006984217 -0.09300723
000010 06 0e d5 bd b2 cf 9d bd 32 2d 98 bd ae 42 54 be
       -0.104030654 -0.0770563 -0.07430495 -0.20728561
000020 d7 91 04 be c0 69 a3 3d 99 6b 04 be 5b 56 81 3e
       -0.12946258 0.079791546 -0.1293167 0.25261196
000030 39 c3 b0 3e 2d 92 4d 3e df b6 10 be 75 9b 40 be
       0.34523943 0.20075293 -0.1413226 -0.18809302
000040 a6 72 c0 bd 31 63 a1 bd 04 57 00 3d 89 7b 44 3e
       -0.093968675 -0.078802474 0.031332985 0.1918775
000050 3c 23 83 ba eb 1f 5a be 8f cc 65 3d 1f b1 13 3e
       -0.0010005007 -0.21301238 0.056103285 0.14423035
000060 b5 7d d9 3d 2c 48 13 bd be a4 63 3e df 18 60 be
       0.1061968 -0.0359575 0.22230813 -0.21884488
000070 cb 7a 21 3d 37 07 03 3b a9 82 ad bd e8 92 6d 3d
       0.039423745 0.0019993314 -0.08472187 0.05800143
000080 4c 4d f7 bd b3 a2 bf bd 8c 20 c7 3d 0a e8 05 3d
       -0.1207529 -0.09357204 0.09723005 0.032691993
000090 1c d6 83 3e 52 4d 85 3e 3d e8 4c 3e 1e e7 a1 3d
       0.2574929 0.26035553 0.20010467 0.0790541
0000a0 a7 b2 d1 bd 63 f9 c5 3d dc e8 82 be 24 46 21 3b
       -0.10239153 0.09666707 -0.25568283 0.0024608457
0000b0 76 7a db bd a4 74 81 be 0d d1 d7 bb 29 41 2a 3d
       -0.10716717 -0.25284302 -0.0065862 0.041566048
0000c0 1a 3a 8f 3d 50 8e ba bd f4 bb 22 3d 19 c9 14 3e
       0.06993504 -0.09109175 0.039730027 0.14529838
0000d0 49 95 73 bd 1e dd 9e 3c bd 31 8a be b7 c3 68 bd
       -0.05946854 0.019392546 -0.26991072 -0.056827273
0000e0 c0 7b 3e bd e7 de fa bc 23 4b 9a bd 4f 86 97 bd
       -0.046504736 -0.030623866 -0.075338624 -0.07398664
0000f0 50 76 26 be 1f c2 44 be 91 dd 48 3e 1a 50 2b bd
       -0.1625607 -0.19214676 0.19615771 -0.041824438
000100 4e 77 17 3e 05 98 e7 3d 6d d3 1f 3e 5a b8 19 bc
       0.14791605 0.11308292 0.15607996 -0.009382332
000110 d6 03 a5 3d cf 79 c6 bd 48 14 8c bd 71 e2 8f be
       0.08057372 -0.09691202 -0.06839806 -0.2810245
000120 b2 2a ef 3d b2 ea 15 3d 71 85 a6 3c 2f cd 0f be
       0.11678065 0.036600776 0.020327302 -0.14043115
000130 c8 34 78 3e cc 6b 27 3b 00 2f db 3d 1f c4 df 3c
       0.24238884 0.002554643 0.10702324 0.027315198
000140 99 43 0f be b8 d9 1d 3d d0 5d e8 3d 37 16 fe bb
       -0.1399063 0.03853771 0.11346018 -0.007754113
000150 ac ff 31 3e 62 21 a1 3b 1f f9 f9 bd 28 75 93 bd
       0.17382687 0.0049173096 -0.12205719 -0.0720008
000160 ea 2d 86 3c 74 70 9d 3d 4b 11 af bc 46 f2 68 3e
       0.016379315 0.07687464 -0.02137055 0.2274867
000170 cf f1 6a 3e dc 4a 14 3e 19 22 bf 3d 3f 3d 23 bc
       0.22943805 0.14481682 0.093326755 -0.009963333
000180 11 b3 b4 3d 3b e5 b7 be d9 d4 60 3d 59 d0 2c 3e
       0.08823217 -0.35917076 0.054890487 0.16876353
000190 3f 44 3b 3e 99 02 70 bd 7f 0b 54 3e 17 9e a5 3e
       0.18287753 -0.058596227 0.2070751 0.32347175
0001a0 54 78 5d 3d 79 ae 3b 3e f4 73 47 bd 24 df 8a be
       0.054069832 0.18328275 -0.048694566 -0.27123368
0001b0 86 1c 93 3e d7 01 25 3b 79 bf 2c 3e ab bc 04 be
       0.287327 0.0025178099 0.16869916 -0.12962596
0001c0 a8 05 24 3d 1f 53 8e bd d3 e8 0b bd b9 b4 41 3d
       0.040044457 -0.06949448 -0.034157585 0.04729149
0001d0 5a ff 3e bd dd a3 d6 3d 93 e6 aa be 3d 18 be bd
       -0.04663024 0.10480473 -0.3337904 -0.09281967
0001e0 04 46 f9 3d 5b b7 f1 3d d2 73 0c 3e ee 64 cf 39
       0.121715575 0.118025504 0.13716057 0.00039557315
0001f0 63 52 c4 3e b8 ef 1a be 9b c0 3e 3e 0a 13 da 3d
       0.38344106 -0.15130508 0.1862816 0.10648163
000200 f8 ef b4 bd 8d 75 17 be 2d bc 7a 3e 1a b7 07 3e
       -0.08834833 -0.14790936 0.24485846 0.13253441
000210 3e 75 3c be f7 28 13 3e 1a 72 95 bd 05 51 54 3d
       -0.184041 0.14371096 -0.07297154 0.05183508
000220 5d f0 ef bd 59 c2 65 be 39 ec 4a 3e c9 87 55 be
       -0.117157675 -0.22437419 0.19816674 -0.20852579
000230 1c 2e 24 bd bf ad a8 be fb b7 45 bd 00 45 c6 3c
       -0.040083036 -0.32945058 -0.04827116 0.024202824
000240 95 42 7c bd 97 c8 61 3d 33 b5 ba bd 86 10 b5 3d
       -0.061586935 0.055122938 -0.09116592 0.08841042
000250 32 35 8f bc 78 d0 3e 3c ea 6a 3d 3d ee 86 a2 bd
       -0.01748142 0.0116463825 0.04624454 -0.07935892
000260 5f f7 65 bc 78 56 bc bc c8 3a 0c 3b 8a a4 70 3d
       -0.014036029 -0.02299045 0.002139734 0.058750667
000270 01 02 96 3d 40 ad 6d 3b 28 6a 5d 3c e0 36 fd bc
       0.07324601 0.0036266595 0.013514079 -0.030909956
000280 cd 49 0e bf ea 61 8b 3e 9e d2 5b 3e 44 c2 64 bd
       -0.5558136 0.2722314 0.21467063 -0.05584933
000290 b4 95 15 3e ff 3e 13 be 06 20 0a be 28 53 ac 3d
       0.14607888 -0.143795 -0.13488778 0.08414298
0002a0 be 21 1f be dc 30 18 3e b4 16 2f 39 97 ff a8 bd
       -0.15540215 0.14862388 0.00016697758 -0.08251875
0002b0 af 20 ae bd 4d 0d 8b bd d6 33 0f be 8e b3 7d be
       -0.08502328 -0.06789646 -0.13984618 -0.24775526
0002c0 bf 5b 6f be b8 cf 2f be 74 9f 3b 3e 33 07 c5 3d
       -0.23374842 -0.17169082 0.18322545 0.09620514
0002d0 6d 73 4b 3e fa 69 d1 3d 1f 23 64 be 13 da 38 3e
       0.1986825 0.102252916 -0.22279023 0.18051939
0002e0 49 7b c0 3d 51 af 36 be 10 db 75 be 23 3b 7e 3d
       0.09398515 -0.17840315 -0.24009347 0.062068116
0002f0 97 08 18 be 2a 32 45 be c8 fa 54 be 4e 4f 6a 3e
       -0.14847027 -0.19257417 -0.2079879 0.22881815
000300 5d 16 59 3e 38 ba 35 be 0f c6 1e 3e 0a f8 17 be
       0.21199937 -0.17746818 0.15505241 -0.14840713
000310 c3 18 79 be 91 8b eb bd d4 5a 87 be 17 7f 53 3e
       -0.24325852 -0.115012296 -0.26436484 0.2065395
000320 a9 17 97 be ac 6a dc bd e0 e5 98 3e ad 9d 26 be
       -0.2951024 -0.107625335 0.2986288 -0.16271086
000330 11 d1 61 be ae 14 58 3e 74 f8 74 3e 20 f1 8c 3e
       -0.22052409 0.21101639 0.23922902 0.27527714
000340 79 6e 33 3e 8d 2d ae bd 81 e9 9b 3e 0f be 9e 3d
       0.1752261 -0.08504782 0.30451587 0.077510945
000350 86 4d 60 be 2b e7 08 3e 03 fc 23 3e 73 d7 42 be
       -0.21904573 0.13369434 0.16014104 -0.190275
000360 93 a0 2b be a8 1b 87 be 2b 23 bc 3d 4c 4c ee 3d
       -0.16760473 -0.26388288 0.09186395 0.11635646
000370 84 1d 8b bd 44 bb f1 3d 85 7d e1 3d ad 9b 4b be
       -0.06792739 0.11803296 0.11010269 -0.19883604
000380 70 31 7e bd a1 f1 04 be ee 43 65 3e 26 7f e1 bd
       -0.062058866 -0.12982799 0.22389194 -0.1101058
000390 6d 44 64 bd 1a 86 33 3e 6e 20 19 3e fe e7 36 bd
       -0.05572932 0.17531624 0.14953777 -0.04465484
0003a0 14 1b b1 3d 83 b2 20 3e 21 a2 ee bc e3 5b af bd
       0.08647743 0.15693097 -0.029130043 -0.08562448
0003b0 75 37 91 3e e2 59 1f be c2 93 23 be df 6a 68 3e
       0.28362623 -0.15561631 -0.15974334 0.22697018
0003c0 d7 23 d4 3c e1 19 0b 3e 08 86 e7 bd f1 69 fa bc
       0.025895996 0.13584091 -0.11304861 -0.030568095
0003d0 ad 75 9f 3d 8b 6c d2 3c 84 c0 5e bd ac 79 9c bd
       0.07786117 0.025686523 -0.054382816 -0.076403946
0003e0 e3 23 14 3e 82 78 08 3e 88 b9 5c 3e 98 3c 57 be
       0.14466815 0.1332722 0.2155515 -0.21019208
0003f0 79 22 d0 bd aa f1 12 3e 23 4d 63 3e 0c 04 09 be
       -0.10162825 0.1435 0.22197394 -0.1338045

predictor.regime_proj.0.bias f4 [12]
000000 db 3f 5c 3c f4 2e f7 bc cb c9 1d 3e be be 6e 3d
       0.013442959 -0.030173756 0.15409009 0.058287375
000010 6a 56 42 bd 45 7c ac 3d 32 23 36 be f9 ca 3e 3d
       -0.047445692 0.0842214 -0.17786863 0.04658029
000020 c5 3e bb 3d cb d8 97 3d 77 ea 8c 3d 50 be b6 bd
       0.09142832 0.07414397 0.06880658 -0.08923018

predictor.film_scale.weight f4 [96, 12]
000000 3c 3a fe 3e 8f 1b 13 3f b6 37 c7 3d f6 b5 d9 be
       0.49653804 0.57463926 0.09727423 -0.42521638
000010 42 5e 73 3e 5e b2 8a bd 4e 76 87 3e 40 fa 80 3d
       0.23766425 -0.06772302 0.26457447 0.062977314
000020 73 f1 ca 3e 78 c4 9b 3e af b3 2d 3d f2 ad 85 3e
       0.39637336 0.3042333 0.042407688 0.26109272
000030 51 dc 7e bd bb d8 a9 bd c3 1e cc 3d b7 f0 0d bd
       -0.06222183 -0.08293291 0.09966805 -0.03465339
000040 b1 91 4b be 85 57 b9 3e 64 b9 a6 3d cb ff b1 be
       -0.19879796 0.36199585 0.08140829 -0.34765467
000050 0e 0c 91 3e e0 f7 51 3c 90 77 0c 3f 5c 95 80 3e
       0.2832951 0.012815446 0.5486994 0.25113952
000060 a5 23 e8 3e 64 60 1c 3f db 47 72 3e d8 29 b0 bd
       0.45339695 0.6108458 0.23660223 -0.08601731
000070 41 1a 84 3e 6c 02 7f be 23 b8 36 3f fb 21 8d 3b
       0.2580128 -0.24903268 0.7137472 0.0043070293
000080 e8 9f b4 3e e6 65 45 3e 85 eb 95 be 61 0d 6b 3e
       0.3527825 0.19277152 -0.2928125 0.22954322
000090 94 b1 94 be 9c 3a 4f 3e a1 3c 57 3e 9d 83 78 3e
       -0.2904173 0.20237201 0.21019222 0.24268956
0000a0 46 a6 21 3e 18 10 28 3e 95 36 18 3e ff ca 3b bc
       0.15786085 0.1641239 0.14864571 -0.011461972
0000b0 c6 4f fb 3d d7 aa 39 3f b5 94 45 3e 82 88 87 bd
       0.12271075 0.72526306 0.19295008 -0.06617834
0000c0 ba 7f ee 3e b7 a1 a7 bd a8 7b 42 3b 39 1c bb be
       0.46581823 -0.081851415 0.0029675756 -0.3654497
0000d0 d5 41 ed be c7 f6 17 3d 30 92 01 3f bd d3 60 3d
       -0.46339288 0.03710058 0.5061369 0.05488943
0000e0 0b 07 1d bd 3f 0a 8f be 36 0f 36 be b6 a6 2a be
       -0.038336795 -0.27937505 -0.1777924 -0.16665158
0000f0 b4 9c 39 be 4f 52 f0 3d 33 39 3e 3e 6a 88 18 be
       -0.18126184 0.11734449 0.18576507 -0.14895788
000100 91 3d 00 3d 35 c2 8d be 91 56 1b 3f 5b 6a d5 bd
       0.031308714 -0.2768723 0.60678965 -0.10420676
000110 fc 03 ff bc 73 36 a6 3d 7f 5a a1 3e ea b5 8d 3e
       -0.03112983 0.08115854 0.31514356 0.27677852
000120 66 64 6d be 46 71 1e 3d 23 1a 93 3d 96 30 83 bd
       -0.2318283 0.038682245 0.071827196 -0.064057514
000130 8f 59 45 bc 2d 01 73 bd 27 49 04 bf 1e 5d 02 3e
       -0.012045278 -0.059327293 -0.5167412 0.12730834
000140 22 6e 23 3d eb e7 df 3e d6 2a 12 be 7b 08 57 be
       0.039899953 0.43731627 -0.14274153 -0.20999329
000150 ef 59 05 3e c4 6d 88 3d df 30 d7 be 4e 37 7c 3e
       0.13022588 0.06661561 -0.42029473 0.24630472
000160 37 69 30 be 9e d9 d7 be 7b 5a 27 3e 8e c7 ed 3d
       -0.17227636 -0.42158216 0.1634311 0.11610328
000170 eb 54 d2 bc a7 68 37 3e 71 c6 80 be 99 ad 40 3e
       -0.025675258 0.17911015 -0.251514 0.18816222
000180 23 f9 0e be cd 79 e9 be 04 eb 3a bd 15 6f 2b 3e
       -0.13962226 -0.4560074 -0.045634285 0.16741593
000190 f8 d0 9d bd 96 58 3b 3d 1d ea fe be e1 49 33 be
       -0.07705873 0.04573878 -0.4978799 -0.17508651
0001a0 da f2 8d be c4 dd a7 3e e5 d1 d8 be 31 89 b0 bc
       -0.27724344 0.3278638 -0.42347637 -0.021549793
0001b0 19 04 b0 3e 21 96 6e be 4c b8 6a bd 6c a8 0c be
       0.34378126 -0.23299457 -0.057304665 -0.13736123
0001c0 6f e8 80 3e 4d 06 cf 3c 75 52 23 3e 80 85 76 3d
       0.25177333 0.02527156 0.15949424 0.06018591
0001d0 ca 9e a7 3c 6b 9a 30 bf f1 70 56 be 75 97 ec bc
       0.020461459 -0.68985623 -0.20941521 -0.028880814
0001e0 16 b1 36 3d 4d 5a 80 be 4c 56 b3 bd 95 5e f8 3d
       0.044602476 -0.25068894 -0.08756694 0.12127415
0001f0 19 cc 84 bc 0f 55 9f be 5a 68 ef be dd 01 8e 3d
       -0.016210603 -0.31119582 -0.467593 0.06933949
000200 16 d7 ba be 89 ed f6 bd f7 d7 84 be d0 3a a7 3d
       -0.36492223 -0.12057025 -0.25946018 0.081655145
000210 d0 1a 8e 3e 73 74 c6 bd 07 ac de 3e 3e a1 b4 bd
       0.2775483 -0.0969018 0.4349062 -0.08819817
000220 9d 3f 21 be 20 36 fd 3e 51 33 4c 3e a2 a2 24 3e
       -0.15746923 0.49455357 0.1994145 0.16077664
000230 51 aa 14 be a8 23 3a be 64 42 2d bd ce a1 95 be
       -0.14518096 -0.18177664 -0.042299643 -0.2922501
000240 e4 e3 11 3e 01 3b ce 3e 12 0d fb bd cb 2a b8 be
       0.1424709 0.4027939 -0.12258352 -0.35970148
000250 a0 f3 b0 bb 0b 9f 35 be 0b 26 67 be 1d 97 2a bd
       -0.005400136 -0.17736451 -0.22573106 -0.04164802
000260 87 b1 29 3d 8d 5d 43 3e d0 3f 6a 3e 47 6f a5 be
       0.04142907 0.19078656 0.22875905 -0.3231146
000270 2b dc 94 3e d6 2b 23 be 07 16 ab 3d 6a 02 d9 bd
       0.29074225 -0.15934691 0.08353811 -0.105961636
000280 bd 88 33 be 39 ca 0b 3f ef 2d fa 3e e9 db a4 3e
       -0.1753263 0.5460544 0.4886317 0.32199028
000290 58 75 e6 bd b4 a2 31 be 2c cd d4 3d 9b 54 9a 3e
       -0.1125285 -0.17347223 0.10390696 0.30142674
0002a0 79 16 a8 3e 24 a2 03 3e 54 0b 36 bc d8 ec 26 be
       0.32829645 0.1285482 -0.011111099 -0.16301286
0002b0 59 6e 19 3e 62 6e 0e 3f 67 d2 d4 3e a1 27 e7 3c
       0.149835 0.5563718 0.41566774 0.028217139
0002c0 49 82 04 be 4f a9 33 bf 37 21 85 3e 8b 6e c8 3e
       -0.12940325 -0.7018022 0.26001903 0.39146838
0002d0 85 61 47 be 1e 06 39 3e 50 32 47 3d d4 6d be 3e
       -0.19470794 0.1806874 0.048631966 0.37193167
0002e0 1d d9 dc be af ca c2 3c 67 e8 c3 bd 0d 22 d2 bd
       -0.43134394 0.023778288 -0.095658116 -0.10260401
0002f0 2e fa 04 3c cf 5f 1e 3d 5f 87 0c bd 90 f8 4f be
       0.008116288 0.03866559 -0.034308787 -0.20309663
000300 eb 46 77 3e bb 05 3c bf b4 43 9a be 52 d7 3b 3a
       0.24148147 -0.73446244 -0.30129778 0.0007165569
000310 b8 66 d7 be 95 f0 9f bd bf 5b 91 3e c9 ea 28 be
       -0.42070556 -0.07809559 0.2839031 -0.16495813
000320 94 3d 99 be 60 76 ee be be 94 3f be 84 00 9c 3e
       -0.29929793 -0.46574688 -0.18709084 0.30469143
000330 a5 5b c5 3e 28 c0 a2 bd 7c 29 0c 3d 79 9f 39 3e
       0.38546482 -0.07946807 0.03421925 0.1812724
000340 bd 8f e8 3d 25 5c 12 3d 45 27 c7 3c f7 2f ec 3e
       0.11355541 0.035732407 0.024310717 0.46130344
000350 a4 f3 e4 bd 96 78 d4 3c 4a 6e 5b 3d 09 68 9e 3e
       -0.11179283 0.025936406 0.053571977 0.30938748
000360 b2 73 ed 3d 53 1c ef bd 01 ca 2d 3e f3 b5 c2 be
       0.11594333 -0.11675324 0.1697159 -0.3802944
000370 3e 6c 85 3e 8b 74 43 3e 3c 4a f2 3e 81 20 34 bd
       0.26059145 0.19087426 0.4732226 -0.04397631
000380 f5 9e b5 3d 75 a3 eb be 00 8a 2b 3f 22 df 82 3c
       0.08868209 -0.46023145 0.67007446 0.015975539
000390 d2 01 bd bd c7 16 e8 bd 11 20 72 3e 6c c2 0e 3e
       -0.09228863 -0.113324694 0.23645045 0.13941354
0003a0 4b fd a3 3d 10 0b d0 3d 77 b4 06 bf fb 5a a3 3e
       0.08007296 0.1015836 -0.5261912 0.3190535
0003b0 5f 6a c8 be 44 e6 09 be 74 12 c1 3d ca f8 3e 3e
       -0.39143655 -0.13466746 0.09427348 0.18649593
0003c0 8c 20 87 3e 79 f4 22 bf dc 9b d3 3d f6 79 38 3e
       0.2639202 -0.63654286 0.10332462 0.18015274
0003d0 52 40 83 3d c6 91 b9 3e ed 3f 8d bc bf 54 6a 3e
       0.064087525 0.3624403 -0.017242396 0.2288389
0003e0 c3 8c 03 bf bf a1 0c be a5 87 09 be 13 9c 0b 3e
       -0.5138666 -0.13733576 -0.1343065 0.13633756
0003f0 05 38 86 be a6 ba 8d bd 96 cb b1 be d5 5a a4 3c
       -0.26214615 -0.06920366 -0.34725636 0.020062843

predictor.film_scale.bias f4 [96]
000000 c6 e5 a2 3e f6 58 d0 bd cd 7a 7b 3e 37 ec 5c 3c
       0.31815928 -0.10173218 0.24558564 0.013484052
000010 1b f9 85 3c 35 03 59 3d 01 dc 08 be 6c d3 b2 be
       0.016354134 0.052981574 -0.13365175 -0.34926927
000020 34 0e 13 bd 69 a0 fb bd 19 d2 3d be c2 86 20 3e
       -0.035902217 -0.12286455 -0.18537177 0.15676406
000030 f1 7b 51 be 3a f1 c6 3e dd 65 72 3c 7f 07 bc 3b
       -0.20457436 0.38855916 0.014794794 0.0057381983
000040 12 3f 0c 3e 23 a9 ef bd 46 c5 63 be ae 2f f7 bd
       0.13695934 -0.11702182 -0.22243223 -0.12069641
000050 01 9c 21 be c1 01 42 be 2d 0d 93 3e 04 ec 59 be
       -0.15782167 -0.18945982 0.2872099 -0.21281439
000060 90 ed 59 3e 98 d1 6c be a8 62 97 be 9d 0f ab 3d
       0.21282029 -0.23126829 -0.29567456 0.08352587
000070 1d 07 b1 3d 44 1c 99 3e 0e dc c7 bc e3 8d 99 bd
       0.08643935 0.29904377 -0.024396922 -0.07497766
000080 8a ac 9b be 69 36 25 bd 49 45 12 3e 62 8e 36 3e
       -0.30405074 -0.040335093 0.14284243 0.17827752
000090 52 be 82 3e bf 2a 83 be 96 bf a7 be 46 2e 8a 3c
       0.25535828 -0.2561855 -0.32763356 0.016867768
0000a0 4d 62 d6 3c 32 88 6b bc fd cd bd be 19 08 53 be
       0.02616992 -0.014375733 -0.3707122 -0.20608558
0000b0 47 c5 5d 3e 6b dc 80 be be bc 05 3e aa 39 98 bc
       0.21657287 -0.25168166 0.1306028 -0.018582184
0000c0 56 cb 5e be d1 b7 90 be 6a 02 fc be 21 c7 08 be
       -0.21757254 -0.2826524 -0.49220592 -0.13357212
0000d0 bf 01 20 3c 98 1d eb 3d e6 6a c8 bc a7 97 99 3c
       0.009766041 0.11480254 -0.024465036 0.018749071
0000e0 08 7f 3a 3d f7 f7 93 3d 18 68 20 3e c0 ad 97 3e
       0.045531303 0.0722503 0.15664709 0.29624748
0000f0 f6 34 3b bd 26 83 19 3d 89 95 18 3d 5d 63 ab 3d
       -0.045704804 0.03747859 0.037251983 0.083685614
000100 bc 20 e4 3d 92 3f 95 3e c9 d7 32 3d 73 3f bf 3d
       0.11139056 0.29150063 0.04366282 0.09338274
000110 67 cf 49 bc 65 07 0a bd 4a ce 24 be 77 3b 0b 3f
       -0.012317515 -0.03369846 -0.16094318 0.5438761
000120 75 0c dc 3d fd 7c 31 be cc 8c d9 3d ee 94 99 3e
       0.107445635 -0.17332835 0.10622558 0.29996437
000130 8b 4a 7f be 7d 38 64 be e6 15 ea 3d ca 67 c9 be
       -0.2493078 -0.22287174 0.11429958 -0.39336997
000140 e6 9a 03 3e a7 b2 9d 3c ac 0a 08 3e 80 a0 a8 3e
       0.12852058 0.019250227 0.13285321 0.32934952
000150 1c 5b a4 be e7 91 1c be 4b c0 ad 3d 39 3f 84 be
       -0.3210076 -0.15290032 0.084839426 -0.25829485
000160 be ab cf 3d 27 81 35 be d9 ba 99 3e f6 e2 92 bd
       0.10140179 -0.17725049 0.30025366 -0.071721956
000170 f8 0e d3 bb 5a 18 66 be 62 86 24 3e e8 ba 06 bd
       -0.0064409934 -0.22470227 0.16066888 -0.03289309

predictor.film_shift.weight f4 [96, 12]
000000 58 a0 54 3e 6d 8a 29 be 2b 37 0b bd dc 05 a6 3e
       0.20764291 -0.16556711 -0.03398816 0.32426345
000010 a4 a0 72 bb cd 8a 9a bc dd b6 be 3d cd bc 98 be
       -0.0037022019 -0.018865013 0.09312222 -0.29831544
000020 eb 32 ef 3d 43 8e d9 3e b6 c1 48 be 66 21 83 3e
       0.11679634 0.4249135 -0.19605145 0.25611418
000030 09 7c 68 bd 45 af 07 3d d7 15 3c be 1a 3a 4e 3e
       -0.056758914 0.033126134 -0.18367706 0.20139351
000040 09 5e 25 3e 56 67 81 3d 1b 0b 04 3f ff e4 16 3b
       0.16149153 0.06318538 0.51579446 0.0023024676
000050 d7 3a 5b 3e 89 91 13 be 79 1c 06 bd 7d 8c 9e 3d
       0.21409164 -0.14410986 -0.032741997 0.0774164
000060 1b 13 a3 3e 08 c2 ef 3c 51 e3 ae bd a1 92 ab bc
       0.31850514 0.029267326 -0.08539451 -0.020943942
000070 6b b1 9b 3d 34 bc b5 bd 85 1a 7e be 92 f3 ff 3c
       0.07602199 -0.088737875 -0.24814804 0.031244073
000080 f6 41 98 3e 75 0d b0 be f9 f6 0a be 89 b4 53 bd
       0.29737824 -0.34385267 -0.13570775 -0.051685844
000090 05 01 8d 3c 47 ba 50 3e 07 8c c6 bb 5f 0b 22 be
       0.0172124 0.20383559 -0.006059173 -0.1582465
0000a0 36 6a 22 bd 2c 97 5e bd 95 94 8e be 2c c2 2a 3e
       -0.039652072 -0.054343387 -0.27847734 0.16675633
0000b0 3f 7b 6f ba 04 dc 88 bd 66 ef a7 be 94 39 84 3e
       -0.00091354916 -0.0668259 -0.32799834 0.2582518
0000c0 e2 86 7c bd a6 ed bc bc 2f 53 4b be ba a4 65 be
       -0.06165207 -0.023062538 -0.19855951 -0.2242612
0000d0 8a a5 93 3e 01 d5 8e 3e f1 8f 27 be a8 c1 3d 3e
       0.28837234 0.27896884 -0.16363503 0.18530905
0000e0 ea 8f 52 3d ae a9 df 3d b2 e6 15 3e f9 c4 5e 3d
       0.05140678 0.10921036 0.14638785 0.054387067
0000f0 11 77 cb 3d 75 db 1c be cc a5 15 3e 93 07 2e 3e
       0.099348195 -0.15318091 0.14614028 0.16995077
000100 45 57 3d be b6 c7 64 be 80 47 fc 3d 36 e9 96 be
       -0.18490322 -0.22341809 0.12318325 -0.294748
000110 2b 4b dd bd f6 ac b9 3d d6 b6 7f 3e 6d ad 55 bc
       -0.10805353 0.09066193 0.2497209 -0.013041836
000120 0b 33 80 bd 74 5b 0a 3e 5b 0f 8d 3e b4 40 45 3e
       -0.06259736 0.13511449 0.27550778 0.19262964
000130 15 d5 54 be 0e 6e 57 be 69 82 aa 3e 48 c1 5b 3e
       -0.2078441 -0.21038076 0.3330262 0.2146045
000140 c8 1a b6 be 44 29 3a be 4c 11 d2 3e 14 5a bb 3e
       -0.35567307 -0.18179804 0.4102882 0.36592162
000150 e6 19 21 3e 52 07 26 3d 74 a9 2b be 82 d3 44 bd
       0.15732536 0.040534325 -0.1676386 -0.048053272
000160 f7 75 33 bc 31 f7 30 be b0 7e d3 3d 9b 9e 67 3e
       -0.010953418 -0.17281796 0.10326898 0.22619097
000170 58 f8 6b ba 2b 92 88 be 2e c0 05 3e 9a 36 cd 3d
       -0.00090015447 -0.26674017 0.13061592 0.1002018
000180 e1 d0 c5 3a be cb 8f 3e 03 4c ef 3d 54 19 76 be
       0.0015092158 0.2808513 0.1168442 -0.240331
000190 fd 21 57 3e ce 68 da 3d f4 9e 0b 3e 4b f9 ba 3d
       0.21009059 0.10664521 0.13634855 0.0912958
0001a0 93 9a a2 bb 02 64 a0 be 62 ab 1c be a1 f2 16 be
       -0.0049622743 -0.313263 -0.15299752 -0.14740993
0001b0 f6 ee fe 3c f7 cb 0a bb 4c 55 05 3e 62 f2 26 bd
       0.031119805 -0.0021178701 0.1302082 -0.040758498
0001c0 df 56 ae 3e 37 cc c4 3d bc 6d 14 be 57 ff e5 3d
       0.34050652 0.096092634 -0.14494985 0.11230343
0001d0 48 97 e5 3c 23 ce ae bd 16 09 ee bd e4 7f 2b 3e
       0.028026238 -0.08535411 -0.11622827 0.16748005
0001e0 8d 4d 0f 3e d5 96 83 39 16 9a f9 3d 20 76 92 bd
       0.13994427 0.00025098646 0.12187593 -0.07151437
0001f0 31 04 44 3e 82 48 a3 bd c3 60 be be 05 b9 b2 3d
       0.19142224 -0.07972814 -0.37183198 0.08726696
000200 8e 3d 3b bc e5 07 14 bd fc d7 0c be 30 fa 2d 3e
       -0.01142825 -0.03614034 -0.13754267 0.1698997
000210 d4 bb d8 bd 8c 30 07 3e 5f 67 84 be a6 b7 92 3e
       -0.105827 0.13202113 -0.25860116 0.28655738
000220 f4 69 6f be 92 03 31 3a 20 1e 2f be 4d a0 a7 be
       -0.23380262 0.0006752546 -0.17101336 -0.32739487
000230 aa f1 5e 3e f5 a8 80 be a8 a8 5f 3d 03 b8 95 be
       0.21771875 -0.25128904 0.054604203 -0.29241952
000240 08 ab b6 be 01 d6 9c be 55 2d 4a bc d9 ec d2 3d
       -0.3567736 -0.30632022 -0.01233991 0.10299081
000250 28 79 e9 bd ec f5 15 3e ba 1c 80 bb 00 d3 55 bd
       -0.11400062 0.14644593 -0.0039096745 -0.05220318
000260 1e 2e 36 be bb 82 0c 3e 0b f1 4d 3e 75 dc 8d 3e
       -0.1779103 0.13721745 0.20111482 0.27707258
000270 50 90 9e 3e 78 dc 03 3e af d7 73 be 12 ff e0 3d
       0.30969477 0.12877071 -0.23812746 0.10986151
000280 7f 20 8e be 60 8c f2 bd c7 73 71 bd 7a 27 d4 bd
       -0.27759168 -0.11843181 -0.058948305 -0.10359092
000290 bc aa ac bc 6a c2 85 be 6f 28 9b be 52 13 ac be
       -0.021077506 -0.2612489 -0.30304286 -0.3360849
0002a0 a8 e8 4d 3e d2 fd 57 be 58 72 83 3e 1f ce dc 3d
       0.20108283 -0.21092919 0.25673175 0.10781502
0002b0 af 48 ed be b6 03 a2 be b1 40 ea be a3 dd 91 be
       -0.46344516 -0.31643456 -0.4575248 -0.28489408
0002c0 54 75 10 be 49 9f 5b 3e 44 31 fa bd 8b 6a 48 be
       -0.14107257 0.21447481 -0.12216428 -0.19571893
0002d0 4b 54 01 bd 4e d0 f0 bb 50 d8 5a 3e f3 09 4e be
       -0.03157453 -0.0073490506 0.21371579 -0.20120983
0002e0 38 60 12 be 17 67 29 bd 5c 2e 6e 3e 69 00 9f 3e
       -0.14294517 -0.04135808 0.23259872 0.31055
0002f0 a1 3b f0 3d ff ed fb 3d 1e 65 f7 3d 1b 4f 06 3d
       0.11730123 0.123012535 0.120798334 0.032790285
000300 f0 e3 72 3d eb ad da 3d 4e 0a 8e be be a6 15 3e
       0.05929941 0.106777035 -0.27742237 0.14614388
000310 57 51 08 bc da ca ba bc fd 5f 80 be 6e cd 52 be
       -0.008320174 -0.022801805 -0.25073233 -0.20586178
000320 75 6b 0e be 5d e7 81 be 6e 25 77 3e a5 f4 fc 3c
       -0.13908179 -0.2537183 0.24135372 0.030878374
000330 c5 19 86 be ab a2 95 3e 69 ad e5 3d 86 34 9d bd
       -0.26191536 0.29225668 0.11214716 -0.07676034
000340 b5 53 2b 3d d4 90 54 3e 1e df 39 bd b9 77 ce 3c
       0.041827876 0.20758373 -0.045378797 0.025203573
000350 a6 94 31 be ef 0e 5d 3d 0b ab bb 3d 58 2a a8 3e
       -0.17341861 0.05396932 0.09163483 0.32844806
000360 09 ac 09 be cc 70 ed 3d 85 7b 5e bd ad 36 b7 bc
       -0.13444532 0.1159378 -0.054317016 -0.022364939
000370 5b c6 a8 3d 0f 08 91 3e 7c 2b b8 3e 0d 7f 12 3e
       0.08240958 0.2832646 0.35970676 0.14306279
000380 c4 ff 3e bc 44 b2 d6 bd dd 8e a2 3e 53 95 da bd
       -0.011657659 -0.1048322 0.3174962 -0.106730126
000390 b1 ed f0 3e ae 54 90 3e 6b 55 70 be 8e b2 b4 3d
       0.47056344 0.28189605 -0.23470084 0.08823119
0003a0 c0 60 34 3e 78 ab 9b bc ad de 32 bd 68 9c d4 bd
       0.17615032 -0.019002661 -0.04366939 -0.103813946
0003b0 b7 a4 80 3e aa 4b ee be 4a f5 fa 3d 27 15 b7 bd
       0.25125667 -0.46542102 0.122538164 -0.08939581
0003c0 ff b6 3f be a6 4e 65 be a2 9a ee bd 21 2d 49 bd
       -0.18722151 -0.22393283 -0.116505876 -0.049115304
0003d0 ee 68 e7 bd 1c 3d 05 bd b0 3b b8 bd a5 25 7b 3e
       -0.112993106 -0.03252898 -0.089957595 0.24526079
0003e0 89 0d 2c be ba 6b e6 3d 33 f9 c0 bd 68 58 b4 3e
       -0.16802038 0.11251016 -0.09422531 0.352237
0003f0 e9 7e 78 3e ef 3c 20 3e 01 93 14 be cd d8 5d bd
       0.24267162 0.15648244 -0.14509203 -0.054161835

predictor.film_shift.bias f4 [96]
000000 90 07 1d be a9 c0 b9 3e 2f 42 c9 be f9 42 ce 3d
       -0.15334916 0.362798 -0.39308307 0.10071368
000010 ec 28 86 be 22 55 4f 3e 48 2b a8 3e 01 9e 96 be
       -0.26203096 0.2024732 0.3284552 -0.29417422
000020 99 ea 4c be 90 16 0d be 44 99 f1 bd 31 27 a1 bd
       -0.20011367 -0.13778138 -0.11796811 -0.07868803
000030 8d 8d 3b be 0c c5 b7 3d f0 02 06 be 7b c8 a6 be
       -0.18315716 0.089731306 -0.13087058 -0.3257483
000040 55 ef bb be 04 19 84 be a7 14 b9 be 1b 09 9c 3e
       -0.36706033 -0.25800335 -0.3614857 0.30475697
000050 04 19 86 3e 3e 65 36 be 44 83 36 3e 5e 60 9e bc
       0.2619096 -0.17812058 0.17823511 -0.01933306
000060 e7 c1 92 3e bb c2 9d be 5a 95 4a 3e 81 56 8d 3e
       0.2866356 -0.3081263 0.19783536 0.2760506
000070 52 9e b3 bd ed fc 85 be ab 46 7d be f2 15 8f 3e
       -0.087704316 -0.2616953 -0.24733989 0.2794643
000080 91 49 be be a7 8b c9 3d 75 4c 0a 3e 84 79 45 3e
       -0.37165502 0.0984109 0.13505729 0.19284636
000090 1a 28 86 3e 6b 8b 1b bc 49 bc 98 bd 4f 4a 45 3e
       0.2620247 -0.009493689 -0.074577875 0.19266628
0000a0 2d 44 ae 3e c2 1c 01 3e f8 f8 56 3e f0 5e f2 3e
       0.3403639 0.12608626 0.20993412 0.47338057
0000b0 25 a0 0f 3e c8 2f 92 be f5 25 d8 bd bf 79 36 3e
       0.14025934 -0.2855208 -0.10554115 0.1781988
0000c0 14 7d c4 3e 36 b2 99 3d b7 a7 ca 3d f9 22 6a be
       0.38376677 0.07504694 0.0989527 -0.22864904
0000d0 15 1f 90 be 90 ae 9f be 66 dc 59 be aa 31 88 3e
       -0.28148714 -0.31187868 -0.21275482 0.2660039
0000e0 8d 5c 58 bd 55 86 d7 3c 85 7e 02 3e cc 7d 81 3e
       -0.05282264 0.026309172 0.12743576 0.25291288
0000f0 a1 26 8b 3d ca d0 83 3d 90 2e 3d be bf 8e 63 be
       0.06794477 0.06436308 -0.18474793 -0.22222422
000100 7e 4f ad 3e e1 f4 1a bd 7c 73 9f 3d b1 d6 7a 3e
       0.3384971 -0.03783119 0.07785699 0.24495961
000110 25 74 f2 bc 61 99 46 3e ae 31 87 3d 57 a3 e1 3e
       -0.029596398 0.19394447 0.066012725 0.4406993
000120 27 dd f6 3d bb d1 b5 be d7 2f 0a 3e 57 80 72 3d
       0.120539 -0.35511574 0.13494812 0.059204426
000130 ad bc 94 3d b3 69 39 3d 75 36 9f be 1e 00 37 bc
       0.072625495 0.04526682 -0.31096235 -0.0111694615
000140 cf b0 5c be 2b 5f ca 3d 1d a5 79 be ff 54 48 be
       -0.21551822 0.09881433 -0.24379392 -0.19563673
000150 03 0b 9d be 3f d2 1d be 42 89 1d 3e 21 0f 8a be
       -0.30672464 -0.15412234 0.15384391 -0.26964667
000160 73 95 04 bd a9 02 ab bd 7a a3 42 be f6 54 a7 3d
       -0.03236909 -0.08350117 -0.19007674 0.08170502
000170 c7 cb 58 be bf b3 98 be cb d0 94 3e 5a 2a 37 be
       -0.21171485 -0.29824635 0.29065546 -0.1788725

predictor.pred_head_t0.0.weight f4 [32, 96]
000000 af ab 92 be b4 f6 86 3c ed 12 5b 3d d7 ea 9d 3d
       -0.2864661 0.01647506 0.053484846 0.07710808
000010 24 59 45 bd 5d 5b 32 be ce 46 3a 3d c6 c4 20 3e
       -0.048180714 -0.17417665 0.04547768 0.15700063
000020 2a ed 1b 3e 59 1f 87 bd fb 7c 53 bd be d6 5c 3d
       0.1522719 -0.06597776 -0.051632863 0.05391573
000030 e2 bf ee bc fe fa 41 3e 4e 0a c4 bd b1 52 97 bc
       -0.029144231 0.18943402 -0.09572278 -0.018472048
000040 af 24 96 3a 66 98 33 3e 6a d0 8b 3d 32 45 c2 3d
       0.0011455024 0.17538604 0.06826861 0.09485854
000050 f9 2a 90 3d 91 4e 35 3e 07 33 a0 bd b4 e4 2f bd
       0.070394464 0.17705752 -0.07822233 -0.042942718
000060 99 e6 5a bc 85 89 05 3e 25 b6 06 3e 41 a0 b1 bd
       -0.013360643 0.13040741 0.1315542 -0.08673144
000070 d8 da c9 bd 1a bb ae bd e6 3d ba 3d af 86 4b 3d
       -0.09856194 -0.085317805 0.090938374 0.04968899
000080 7c cf 93 3d 41 d8 1d 3e f2 56 2d bd ff a1 1c bd
       0.07217309 0.15414526 -0.042319246 -0.03824043
000090 2f c5 4c bd b6 0a 0e 3e 15 6e 23 be 3a e0 72 be
       -0.049992736 0.13871273 -0.15959962 -0.23718348
0000a0 85 51 2c be be 3d c6 bc 0a e4 be 3d 08 ba b7 3c
       -0.16827972 -0.024199363 0.09320839 0.022427574
0000b0 f7 49 18 be 41 79 a3 bc dd ba 33 3d 94 2f b8 bd
       -0.14871965 -0.01995528 0.04387938 -0.0899345
0000c0 25 d4 32 be 4c c4 0b bd 73 f9 0c be df 9b 37 bd
       -0.17463739 -0.03412275 -0.13767032 -0.044826385
0000d0 4e d7 68 bd 34 38 06 3e ac e8 ee 3c 9b b7 2d 3d
       -0.056845956 0.13107377 0.029163681 0.042411428
0000e0 71 36 b0 bd 4d bb ac bd dc de bc bd dc 0b 26 3d
       -0.08604134 -0.08434162 -0.092221946 0.040538654
0000f0 7b aa d6 3d d9 7f 34 bc e8 46 48 3d f7 ad 05 3d
       0.10481735 -0.011016809 0.048895746 0.03263661
000100 fd 14 74 bc 22 b9 1f 3d 73 c3 3b be f3 bd 35 3e
       -0.014897582 0.038994916 -0.18336277 0.17748241
000110 6e ec d7 bb 97 e3 0a be 2e d1 7a 3d 00 29 c5 bd
       -0.006589464 -0.13563381 0.061234646 -0.09626961
000120 ab ee 39 3d 1c 03 f5 3d b1 32 0b be 05 f5 51 be
       0.045393627 0.11963484 -0.13593556 -0.20503624
000130 f1 a2 85 be 00 07 cf bd d8 dd 19 be 4c 93 70 be
       -0.26100877 -0.10108757 -0.15026033 -0.2349369
000140 c2 21 cc bd 1d 9f c4 bd 39 8c 6f bd e7 21 cf 3d
       -0.09967376 -0.09600661 -0.058483336 0.10113888
000150 2c 9c 85 3e 07 5d d8 3c d9 5a 2f be a3 ac 38 3d
       0.26095712 0.026411546 -0.171245 0.045086514
000160 a8 f9 b5 bd c2 cf 0b 3e 6c f4 7c 3e 29 4e 89 3d
       -0.08885509 0.13653472 0.24702615 0.06704361
000170 ab 8a ed bd 9c 6a 03 bd 7a 63 f6 3d 27 18 ed 3d
       -0.115987144 -0.032084092 0.120306924 0.11576872
000180 b1 a5 cf bd 56 08 be bc cb df 3c be b5 11 b8 3d
       -0.10139025 -0.023197334 -0.18444745 0.08987752
000190 3a 93 28 be 4c 98 32 3e 74 a0 b4 3d a1 b1 4b be
       -0.16462412 0.17440909 0.088196665 -0.19891979
0001a0 05 80 07 3e f4 24 4f 3c c8 fb 8c 3d 1d 1b 7c 3b
       0.1323243 0.012643088 0.06883961 0.003846831
0001b0 b7 c7 4c 3c 59 e2 11 bd ee a5 05 3e 01 f7 82 3c
       0.012498788 -0.035616253 0.13051578 0.015986921
0001c0 c0 0e 17 be 35 85 8d bd d8 63 5a be 00 8b a3 bd
       -0.1475172 -0.06910173 -0.2132715 -0.079854965
0001d0 13 d5 ce bd c6 c1 2a be 91 5b b1 3b 89 d8 da bc
       -0.100992344 -0.16675481 0.005412527 -0.02671458
0001e0 00 25 f7 bd bf 5c 3f bd 72 23 b7 bd 63 a1 4c 3d
       -0.12067604 -0.04671931 -0.089423075 0.049958598
0001f0 fe 97 7c bd 40 2b 2f 3e fb 2e 86 be e5 09 63 be
       -0.06166839 0.17106342 -0.26207718 -0.22171743
000200 f8 35 4e bd ee e6 f1 bd 36 9d 8f be f2 fc c7 bd
       -0.050344437 -0.118116245 -0.2804963 -0.09765042
000210 6c 97 67 3e e4 67 87 be c4 f9 b2 3d 61 cd d3 bc
       0.22616357 -0.2644645 0.08739045 -0.025854768
000220 16 68 71 3e 68 0e 3a be 7d 61 4e be b9 13 b8 3d
       0.23574862 -0.18169558 -0.20154376 0.08988137
000230 f7 fc 70 3b fe 73 0e 3e c9 e3 86 3d 9a 37 86 3e
       0.0036771873 0.13911435 0.06586415 0.26214296
000240 19 f7 a3 3d c6 79 3c bd e1 0e 0e bc 99 b7 b9 bc
       0.080061145 -0.04601457 -0.00867054 -0.022670554
000250 50 8e 9f 3d d1 03 73 3e 59 5c 04 bd 23 73 f8 bd
       0.07790816 0.23731925 -0.032314632 -0.121313356
000260 ff 10 25 3e cc 96 52 bd 7a 2a 81 3c f4 5a 3c 3e
       0.16119765 -0.051413342 0.015767325 0.18394071
000270 84 7d 74 3d 44 9c 63 bc 9d 4f 4a bd 96 24 c9 3d
       0.059690014 -0.013892237 -0.04939233 0.09821431
000280 1f f8 50 3e 7c 22 9a bd 8c 9e a1 bd 7b 34 b4 3e
       0.2040715 -0.075261086 -0.078915685 0.3519629
000290 7f a0 ba 3d e2 c5 39 3e f6 f6 22 be 24 49 84 3c
       0.091126435 0.18141893 -0.1591452 0.016148157
0002a0 2f b3 1e bc 4b 13 6b 3d b5 25 ce bb a5 5f e1 3c
       -0.009686275 0.057391446 -0.006291116 0.027511427
0002b0 79 cd 2b 3e 6b 67 97 be 36 e0 44 bc fa 19 a2 3d
       0.167776 -0.2957109 -0.012016347 0.07915111
0002c0 56 58 c8 3d d1 ab 0f 3e bf a5 95 be 02 1d 80 bd
       0.09782474 0.14030387 -0.29228017 -0.06255533
0002d0 83 03 29 be de 5f 75 be d0 90 bd 3b 61 f3 03 be
       -0.16505246 -0.23962352 0.0057850853 -0.1288581
0002e0 81 98 f9 bd ae e3 ea bd cb bf 0f 3e 6b 6c 50 be
       -0.12187291 -0.11469208 0.14038007 -0.20353858
0002f0 d7 f3 ae bd 6b 14 f9 bc 6f be 3f be af 0b 81 bd
       -0.085426025 -0.030405244 -0.18724988 -0.063010566
000300 94 8d 8c 3c f1 69 d9 3d c0 8b 20 be a9 93 44 bd
       0.017157353 0.1061591 -0.1567831 -0.047992382
000310 bf 57 0b be 49 ca 82 3e 87 4e 23 3e e4 01 2b bd
       -0.13607691 0.25544956 0.15947925 -0.04174985
000320 f0 09 d7 bd 2e 9f c5 3c 58 08 e3 bc 75 e2 8a 3d
       -0.10499942 0.024123754 -0.02771394 0.067814745
000330 c3 d0 6d 3d ed 2d 3f bd 1a 75 40 3e 1a ab 38 be
       0.05806042 -0.046674658 0.1879467 -0.1803402
000340 0b 3d e4 3d d6 a3 39 3d 62 b3 97 3c 79 24 e7 bd
       0.111444555 0.04532226 0.018518154 -0.112862535
000350 3d 90 d4 3c 4e ef 80 be 03 ec 02 be b2 8d 40 be
       0.025947684 -0.25182575 -0.12785344 -0.18804052
000360 93 26 94 be 65 ad ad bd 19 19 63 3d a5 08 1a 3e
       -0.2893568 -0.08480338 0.055443857 0.1504236
000370 3b d0 81 3d 2c 21 7a 3d b3 53 a3 bd 2c a2 fb bd
       0.06338545 0.06106679 -0.07974949 -0.12286791
000380 8e 86 5f 3c e0 41 cd b9 83 a3 42 bd 3b 57 a9 bd
       0.01364292 -0.00039149728 -0.04751922 -0.08268591
000390 98 28 6b 3d 4b 38 f5 bd a2 9b d8 bc 1c 1e 22 bc
       0.05741176 -0.11973628 -0.026441399 -0.009894874
0003a0 0c e1 91 3d f7 b0 2e be 93 bd 61 3d 4f b0 d3 3d
       0.071230024 -0.17059694 0.055112433 0.103363626
0003b0 d4 da 37 be cb eb eb 3c 85 ff 27 be e3 a8 4a bc
       -0.1795457 0.028798958 -0.16406067 -0.012369367
0003c0 a9 c2 88 bd 8b d0 db bd 2d 2b 7a 3e da 95 78 be
       -0.066777535 -0.10733136 0.24430533 -0.24275914
0003d0 a6 09 85 be a9 ac c2 bc 37 aa 26 3d 4b a4 2c 3d
       -0.25983924 -0.023763971 0.040689673 0.04214887
0003e0 b5 15 b9 3d dd 34 f6 3b 1b fa d0 3d a8 41 f0 3d
       0.090373434 0.007513626 0.10203954 0.11731273
0003f0 15 1b 45 bb be 15 2e 3d b4 e5 0f 3e 74 a9 df 3d
       -0.0030075957 0.042501204 0.14052469 0.109209925

predictor.pred_head_t0.0.bias f4 [32]
000000 c0 93 cc bd 5a 7b 20 3e c5 9d 06 3e 81 99 55 3d
       -0.099891186 0.15672055 0.13146122 0.052148346
000010 8a 30 16 3e da 62 93 bd 17 2f a2 3d ba 45 2d be
       0.14666954 -0.07196589 0.07919138 -0.1692113
000020 a7 44 45 3e 81 ce 89 bd 94 f3 01 be de 4d 4a bd
       0.1926447 -0.067288406 -0.12690574 -0.049390666
000030 19 1e b2 3c f9 53 49 bd 00 e1 06 be 74 1e 0c be
       0.021742867 -0.04915235 -0.13171768 -0.13683492
000040 36 ec 3c 3e 62 04 d2 3c bf 8c 17 3e a3 23 2c ba
       0.18449482 0.025636856 0.14799784 -0.00065665896
000050 7e b7 c7 3d 6c 15 ca bd b2 0c 5e bd e8 0b 8f bd
       0.09751795 -0.09867367 -0.054211326 -0.06984693
000060 49 8e 29 3e c2 83 51 3d fc b2 37 3e b7 b4 2e 3d
       0.16558184 0.051151045 0.17939371 0.04265281
000070 63 0d e9 ba 29 f7 4f 3e e9 0f 27 bd 21 4e 1b be
       -0.0017780479 0.20309128 -0.040786657 -0.15166523

predictor.pred_head_t0.2.weight f4 [1, 32]
000000 71 f2 1b be 17 53 78 3e f9 22 98 3e 3a 5c 6d 3e
       -0.15229203 0.24250446 0.29714182 0.23179713
000010 4e 98 45 3e 76 96 36 be a6 ed b9 3d cb ed 03 be
       0.19296381 -0.17830834 0.09078531 -0.1288368
000020 4f 7c 34 3e 68 4b f2 3d 92 42 72 3e 97 4e 28 be
       0.17625545 0.11830789 0.23658207 -0.1643623
000030 0f d8 d6 bd f7 42 40 3e dc b8 e8 bd 13 53 85 3e
       -0.10490429 0.18775545 -0.11363384 0.26039943
000040 9e be 5f 3d a6 bd 20 be 5c c4 2b 3e 80 bf 7a 3d
       0.054625146 -0.15697345 0.16774124 0.061217785
000050 40 68 99 3e 42 aa 32 be 6a 92 55 be d8 02 75 be
       0.2996235 -0.1744776 -0.20856634 -0.23926866
000060 f6 6f 79 be 6d b7 dd 3d 21 c0 44 3e 17 cc ec 3d
       -0.24359116 0.10826001 0.19213916 0.115623645
000070 f1 92 26 3e 33 9e 85 3e b5 77 84 be 4c 98 3a be
       0.16266991 0.2609726 -0.2587258 -0.18222159
